app/src/main/assets/keras_model.tflite (tflite, 408824 bytes, 4 tensors)

dense_1/bias f4 [10]
0	0xbde2b16d	-0.110689975
1	0xbd1deed5	-0.038557846
2	0x3d807b6e	0.06273542
3	0xbd32fde5	-0.043699164
4	0x3e0804a5	0.13283022
5	0x3bf1066b	0.0073555014
6	0xbd1f5a20	-0.03890431
7	0xbd90b279	-0.07065291
8	0x3da5f1a9	0.08102734
9	0xbcf2a36e	-0.029618945

dense/bias f4 [128]
0	0xbdf1cf64	-0.11807135
1	0xbd44514d	-0.047929097
2	0x3d449d9b	0.048001867
3	0x3e0ee41f	0.13954209
4	0x3de9a0a9	0.114075966
5	0xbddf2e4b	-0.108975016
6	0xbd10aad9	-0.035319183
7	0xbd48ef08	-0.049056083
8	0x3df4050a	0.119150236
9	0x3c951907	0.01820041
10	0x3dae31f6	0.08505623
11	0x3e538e1e	0.20659682
12	0x3db12d9f	0.0865128
13	0xbcb33a3b	-0.021878352
14	0xbd4d7e1c	-0.050169095
15	0x3dce401a	0.1007082
16	0x3bc26af7	0.0059331614
17	0x3c2950b4	0.0103341825
18	0x3deacd0a	0.11464889
19	0x3cfa3525	0.03054292
20	0x3d348266	0.04406967
21	0x3d8fd355	0.0702273
22	0xbc12d311	-0.008961455
23	0xbce7697e	-0.028248545
24	0x3d9a732f	0.07541501
25	0x3dc7115c	0.09720108
26	0x3b31e936	0.0027147061
27	0xbd389dbd	-0.045072306
28	0xbd61c88c	-0.055122897
29	0x3d3875de	0.045034282
30	0x3d84f10b	0.06491288
31	0x3d1ec7e1	0.038764838
32	0xbd3f79ef	-0.046747144
33	0x3da64f86	0.08120637
34	0xbd19b527	-0.037526276
35	0x3cc6ee27	0.024283482
36	0x3d7e1d7a	0.06203983
37	0xbd8bd4f2	-0.068277255
38	0xbcc3c8fb	-0.023899546
39	0x3d890276	0.066899225
40	0x3ccdbb7e	0.025113817
41	0x3dfbb5d8	0.12290543
42	0x3ccc52d1	0.024941834
43	0x3e1ef01b	0.1552128
44	0xba9bb4de	-0.0011879464
45	0x3cf78086	0.030212652
46	0x3bd9c398	0.006645631
47	0xbd890560	-0.06690478
48	0x3df8b6f9	0.12144274
49	0xbcbd43fa	-0.023103703
50	0x3d789b18	0.060694784
51	0x3c771ad7	0.015082083
52	0xbc793a87	-0.015211708
53	0x3d193546	0.03740432
54	0xbd13903a	-0.036026217
55	0x3e011c66	0.1260849
56	0x3cbbc310	0.022920161
57	0xbc69eaea	-0.014277199
58	0xbbe19c3e	-0.0068850806
59	0x3c4e1a0a	0.01257945
60	0xbd8899da	-0.0666997
61	0x3c61e971	0.013788567
62	0xbd25b88d	-0.040459204
63	0xbd3ba6d6	-0.045813404
64	0xbe04521e	-0.1292195
65	0x3e1b3ee1	0.15160705
66	0x3cfa1f7d	0.030532593
67	0xbd17a85b	-0.03702579
68	0xbd137ee8	-0.0360097
69	0x3e43ead3	0.19132547
70	0x3d86ea85	0.065877
71	0xbca9f8e6	-0.020748567
72	0x3c88923c	0.016671292
73	0x3b0e9301	0.0021755102
74	0xbcedb2b0	-0.029015869
75	0x3d136c2c	0.035991833
76	0x3d385431	0.045002166
77	0x3e4cfacd	0.20017548
78	0xbd770603	-0.060308468
79	0x3dd793f5	0.105262674
80	0x3ccb09fd	0.024785036
81	0xbd5b9cf9	-0.053616498
82	0xbd3bc876	-0.04584547
83	0x3dd6780b	0.10472115
84	0xbd3cb9b5	-0.04607554
85	0x3d483d96	0.048886858
86	0x3da3fe03	0.08007433
87	0x3e5a4d72	0.21318606
88	0xbdaaed78	-0.08346075
89	0x3d717619	0.058950517
90	0x3d922e2c	0.07137713
91	0x3d05a7f1	0.032630865
92	0xbca1e417	-0.019762082
93	0x3dc4fef0	0.09618938
94	0x3d59abd4	0.053142384
95	0x3e47ecfb	0.19523995
96	0xbca67ef9	-0.020324217
97	0x3e299c5d	0.16563554
98	0x3e12c5cd	0.14333268
99	0xbdb51880	-0.08842564
100	0x3cefc6ac	0.029269539
101	0xbc8623f7	-0.016374571
102	0xbb5686f8	-0.0032734256
103	0x3df7d6a7	0.121014886
104	0xbc93b71d	-0.018031651
105	0x3d88e642	0.06684543
106	0x3cbc0003	0.022949224
107	0xbdbc2c69	-0.09188158
108	0x3c0d6375	0.008629669
109	0xbc96f97c	-0.01842951
110	0x3daaa06b	0.083313785
111	0x3ce4e2dd	0.027940208
112	0x3c51a599	0.012795829
113	0x3e4bbeee	0.19897053
114	0x3dccda3f	0.10002565
115	0x3e00cc43	0.1257792
116	0xbc35df44	-0.011100594
117	0xbc413ef0	-0.011794791
118	0xbc92412b	-0.01785334
119	0xbd52090f	-0.05127817
120	0x3e2f6c9f	0.1713128
121	0x3d9075a8	0.07053691
122	0xbcfd2a6f	-0.030904023
123	0x3d72a7a3	0.059241902
124	0x3d6c9de5	0.057767767
125	0xbc3d211d	-0.011543539
126	0xbcb2e342	-0.02183688
127	0xbb806932	-0.0039187903

sequential/dense/MatMul f4 [128, 784]
0	0xbcc127ae	-0.023578491
1	0x3ca285fc	0.01983928
2	0xbd937223	-0.07199504
3	0xbd1ec023	-0.038757455
4	0x3d878e03	0.066188835
5	0xbd9e6783	-0.07734587
6	0x3cb0450c	0.0215173
7	0xbd0e68ab	-0.034767788
8	0xbd026d9c	-0.031842813
9	0x3d8581fb	0.065189324
10	0x3d5fcffe	0.054641716
11	0x3cd2004c	0.025634907
12	0xbc8e5a93	-0.017377174
13	0x3d57fee0	0.052733302
14	0x3ca67f31	0.020324321
15	0xbd414e39	-0.04719374
16	0x3bd23510	0.006415017
17	0xbcfbf612	-0.030756984
18	0x3b7b5720	0.003835149
19	0x3c98c954	0.018650688
20	0xbd8e5258	-0.069492996
21	0xbc8bc22c	-0.017060362
22	0xbd9fb721	-0.07798601
23	0x3d196f0a	0.03745941
24	0xbce7a8c8	-0.028278723
25	0x3d1d3a28	0.03838554
26	0x3b9b87d0	0.0047464147
27	0xbd808ef2	-0.06277265
28	0xbd284ee7	-0.041090872
29	0xbd9b2f7a	-0.07577415
30	0xbcb15912	-0.021648917
31	0x3d113dae	0.035459213
32	0x3d04f216	0.032457434
33	0xbdb6712f	-0.08908307
34	0xbaccb600	-0.0015618205
35	0xbd3d04fb	-0.046147328
36	0xbd26d8ff	-0.040734287
37	0x3dbccea7	0.09219103
38	0xbd140e2c	-0.036146328
39	0x3d4c99c0	0.049951315
40	0x3bebc136	0.0071946634
41	0x3e22a1f8	0.15882099
42	0x3de48a3a	0.11159177
43	0x3e1dcd5f	0.15410374
44	0x3e76d9df	0.24106549
45	0x3d0fb324	0.03508295
46	0xbdc2b5b1	-0.09507311
47	0xbcf67b34	-0.030088045
48	0x3dcf2e31	0.10116232
49	0xbdd9fc11	-0.10643781
50	0x3d4cc2ed	0.049990583
51	0xbda0e21f	-0.07855629
52	0xbd47c6a2	-0.048773415
53	0x3d8161ff	0.063175194
54	0x3d2099e2	0.039209254
55	0xbd8c7105	-0.06857494
56	0xbd8e26b2	-0.06940974
57	0xbcbee106	-0.023300659
58	0xbd2dc3e4	-0.042423144
59	0x3e456631	0.19277264
60	0x3d7bc04d	0.06146269
61	0xbd7cc2c4	-0.06170918
62	0xbe1e326e	-0.15448925
63	0xbdd134e6	-0.10215168
64	0xbe307d44	-0.17235285
65	0xbdc87d24	-0.09789494
66	0xbc846a10	-0.016163856
67	0x3e693efd	0.22777934
68	0x3e773987	0.24143039
69	0x3e9cdc30	0.3063674
70	0x3e6f42b7	0.23365293
71	0x3e4e1ca8	0.20128119
72	0x3ea55cb2	0.32297283
73	0xbc12b318	-0.008953832
74	0xbc8a1693	-0.016856467
75	0x3dd5f672	0.10447396
76	0x3dc867e6	0.09785442
77	0xbd841fe7	-0.064513974
78	0xbde1009b	-0.109864436
79	0xbde39906	-0.11113171
80	0xbcbde6ad	-0.023181284
81	0x3c36fdcd	0.011168909
82	0xbd95bdc3	-0.07311585
83	0x3ca04b68	0.019567207
84	0xbca78fe2	-0.02045435
85	0x3d352d76	0.044232808
86	0x3e187922	0.14889959
87	0x3d899256	0.067173645
88	0xbe0ef0dd	-0.1395907
89	0x3d320a12	0.043466635
90	0xbe16118b	-0.1465513
91	0xbdfe994a	-0.12431581
92	0x3cb5e68b	0.022204658
93	0xbd33c3ab	-0.043887775
94	0xbd248cd9	-0.040173385
95	0x3d5f910a	0.05458168
96	0x3e3b14f8	0.18269718
97	0x3e66bf94	0.22534019
98	0x3e8938c7	0.2680113
99	0x3e6de828	0.23233092
100	0x3e9aef96	0.30260915
101	0x3e1f18c5	0.15536793
102	0x3df8ace9	0.12142355
103	0xbe1bba03	-0.15207677
104	0xbd6e5998	-0.058190912
105	0xbe73d08b	-0.23810022
106	0xbdd95b72	-0.10613145
107	0xbe856af0	-0.2605815
108	0xbd3f8d13	-0.0467654
109	0x3e3426ec	0.17592973
110	0x3cf4c552	0.029879246
111	0xbd88b359	-0.06674833
112	0xbce3aece	-0.027793314
113	0x3d9d1354	0.07669702
114	0x3dd39b3f	0.10332345
115	0x3e0fc1ce	0.14038774
116	0x3d447369	0.047961626
117	0xbb6e3aa0	-0.0036350861
118	0xbdb7b8d2	-0.089707986
119	0x3e2c12b8	0.16804016
120	0x3de30cbf	0.110864155
121	0x3e10f739	0.14156808
122	0x3d0a84e2	0.033818133
123	0x3e24bf61	0.1608863
124	0x3d7be2fc	0.061495766
125	0x3df77274	0.12082377
126	0x3e6dd2dc	0.23224968
127	0x3e7267bc	0.23672384
128	0x3e57e853	0.21084718
129	0x3e2c74f5	0.1684149
130	0x3c93a912	0.018024955
131	0x3d0d5195	0.03450163
132	0xbe0f7f31	-0.14013363
133	0xbe4b0325	-0.19825418
134	0xbdce8579	-0.10084052
135	0xbecf3008	-0.40466332
136	0xbed63741	-0.4183903
137	0xbe68d599	-0.22737731
138	0x3e14f187	0.1454526
139	0xbc3727a8	-0.011178888
140	0xbc2d6718	-0.0105836615
141	0x3d8dd3a1	0.06925131
142	0x3e06703f	0.13128756
143	0x3d9f2192	0.07770075
144	0xbc94b108	-0.018150821
145	0x3e00c50f	0.12575172
146	0x3d23b2e5	0.03996553
147	0x3dc691db	0.096957885
148	0x3e13ca25	0.14432581
149	0x3dda48c5	0.10658411
150	0xbc123b8d	-0.008925331
151	0xbada7f51	-0.0016670023
152	0x3d15c88c	0.03656821
153	0x3d8ade45	0.06780676
154	0x3dbea175	0.09308139
155	0x3e679538	0.22615516
156	0x3e61046a	0.2197434
157	0x3c6cda50	0.014456347
158	0x3d9fd64a	0.07804544
159	0xbd4cd587	-0.050008323
160	0xbd4effe5	-0.05053701
161	0xbd17ddcc	-0.037076756
162	0xbd04a532	-0.032384105
163	0xbd3e8322	-0.046511777
164	0xbe5e9be7	-0.2173916
165	0xbe8c61f7	-0.2741849
166	0xbddd07ad	-0.1079248
167	0xbd90d044	-0.070709735
168	0x3c557ea8	0.0130306855
169	0x3d1dbf3e	0.03851246
170	0xbd5ed4c2	-0.05440212
171	0x3d8b21c9	0.067935534
172	0xbd8aaa7a	-0.06770797
173	0x3d99964b	0.07499369
174	0xbcc5afed	-0.02413174
175	0xbd854a4e	-0.06508313
176	0xba162625	-0.000572773
177	0x3cffa943	0.03120864
178	0x3d8507d6	0.06495635
179	0x3da8655a	0.08222456
180	0xbd558aea	-0.052134432
181	0x3dbe28f6	0.092851564
182	0xbbdfce7b	-0.0068300343
183	0x3c7dc235	0.015488197
184	0x3db785e8	0.089610875
185	0x3e30600a	0.17224136
186	0x3e0c666a	0.13710943
187	0x3db84bea	0.089988545
188	0x3daceb65	0.084433354
189	0x3c94cb68	0.018163398
190	0x3d1445c2	0.03619934
191	0xbe1a97a1	-0.15096904
192	0xbe71756d	-0.2357995
193	0xbe9c9457	-0.30581924
194	0xbdeea04a	-0.116516665
195	0xbd740e97	-0.059584226
196	0xbd64f195	-0.055894453
197	0x3e10de14	0.14147216
198	0xbe02f95a	-0.12790433
199	0xbd902971	-0.07039154
200	0xbde8df12	-0.11370672
201	0xbc0b986f	-0.00852023
202	0x3c50758c	0.012723338
203	0x3cd218c8	0.025646582
204	0xbd8f59fe	-0.069995865
205	0xbde12475	-0.10993282
206	0xbd79b800	-0.06096649
207	0xbe351599	-0.1768402
208	0xbe23457e	-0.15944478
209	0xbdf91e1f	-0.12163948
210	0x3d59938b	0.053119224
211	0x3d987878	0.074448526
212	0x3e345670	0.17611098
213	0x3e5ed893	0.21762304
214	0x3e8169e0	0.2527609
215	0x3e83d6d5	0.2574984
216	0x3da30fe5	0.07962016
217	0x3b8c39bb	0.004279343
218	0x3d1b81b1	0.03796548
219	0xbd1e3b9e	-0.038631074
220	0xbe4551a7	-0.19269429
221	0xbe085944	-0.13315302
222	0xbe40ea31	-0.18839337
223	0xbd46c585	-0.048528213
224	0xbd0c70d9	-0.034287307
225	0x3e0adf66	0.13561782
226	0xbc994502	-0.018709663
227	0xbd9be7e6	-0.076125905
228	0xbe585039	-0.21124353
229	0xbd5c49d6	-0.053781353
230	0xbd4100f0	-0.047120035
231	0xbd212955	-0.039346058
232	0xbd0fe3f2	-0.035129495
233	0xbe2ae10e	-0.16687414
234	0xbe436736	-0.1908234
235	0xbe1de690	-0.15419984
236	0xbe87d040	-0.2652607
237	0xbe23b521	-0.15987064
238	0xbe13ac99	-0.1442131
239	0x3d927756	0.07151668
240	0x3e21766e	0.15767834
241	0x3e2c3d9d	0.16820379
242	0x3e87cfae	0.26525635
243	0x3e88d763	0.26726827
244	0x3e57ac36	0.21061787
245	0x3e0f956b	0.14021842
246	0x3db15155	0.08658091
247	0xbd1849da	-0.037179805
248	0xbe7d9550	-0.2476399
249	0xbeb68842	-0.3565083
250	0xbd178bcd	-0.03699856
251	0x3ceb2158	0.028702423
252	0xbbaa147a	-0.0051904293
253	0x3d6517e4	0.055930987
254	0x3d521c0d	0.051296283
255	0x3de26f19	0.110563464

sequential/dense_1/MatMul f4 [10, 128]
0	0x3dfc58d7	0.12321632
1	0x3d96e4a2	0.07367827
2	0xbf2d42ce	-0.6768006
3	0x3d651366	0.055926703
4	0x3edee5ab	0.43534598
5	0x3cccd063	0.02500171
6	0x3e08527e	0.13312718
7	0xbcd5c87b	-0.026096573
8	0x3e36fa36	0.17868885
9	0x3e24d38e	0.16096327
10	0x3c58acfc	0.013224836
11	0xbe8fb798	-0.28069758
12	0xbef340e2	-0.4751044
13	0x3d9c86a7	0.076428704
14	0x3d774f5f	0.06037843
15	0x3e147f01	0.14501573
16	0xbf07ab4a	-0.5299574
17	0xbe8abf5c	-0.2709912
18	0xbeb3e445	-0.35135093
19	0x3e40653a	0.18788615
20	0x3e32a73c	0.17446607
21	0x3e71c913	0.2361186
22	0xbe5483a5	-0.20753343
23	0x3d6433d6	0.055713497
24	0xbe1394ae	-0.14412186
25	0xbe4abd27	-0.19798718
26	0xbd45ccce	-0.04829102
27	0x3e4fb7a3	0.20284896
28	0x3eb0b33c	0.34511745
29	0xbd946e42	-0.072475925
30	0x3dd4bd77	0.103877
31	0xbee8f612	-0.45500237
32	0x3e1b631b	0.15174524
33	0x3c9bc024	0.019012518
34	0xbe7261e2	-0.23670152
35	0xbe7bfe38	-0.24608696
36	0xbe9b41f3	-0.30323753
37	0x3dffaf3b	0.124845944
38	0xbebb137f	-0.36538312
39	0x3ce6b7bc	0.028163783
40	0x3e81090b	0.25202212
41	0xbed33b80	-0.41256332
42	0xbe5cb244	-0.21552378
43	0xbeb96e83	-0.36217126
44	0x3cca5fe8	0.024703935
45	0xbe2bd292	-0.16779545
46	0xbf0d5546	-0.5520824
47	0xbd3089ea	-0.043100275
48	0x3e27656e	0.16347286
49	0x3dd40f0e	0.10354434
50	0xbe288a73	-0.16459064
51	0xbcacd689	-0.021098392
52	0x3d96abf5	0.07357017
53	0x3d730691	0.059332434
54	0x3e51edd9	0.20500888
55	0xbe8cf6f5	-0.27532163
56	0x3d8d0369	0.06885416
57	0xbd681052	-0.05665619
58	0x3d38cdbf	0.04511809
59	0xbf54b1bd	-0.8308371
60	0x3d369578	0.04457614
61	0xbe3bc6ff	-0.1833763
62	0x3e2f7815	0.17135651
63	0x3bc4211f	0.0059853937
64	0xbeec497b	-0.4614981
65	0xbe1dbfef	-0.15405248
66	0x3e4457d9	0.19174136
67	0x3e82a0f0	0.2551341
68	0x3df6e909	0.12056167
69	0xbdc0f64d	-0.09421978
70	0x3e0d09a7	0.13773213
71	0xbe46a4d6	-0.19398817
72	0xbef4c625	-0.47807422
73	0xbf1b8fc9	-0.60766274
74	0xbd363bc7	-0.044490602
75	0xbd9ca5e6	-0.0764883
76	0xbec8f0c5	-0.39246193
77	0x3e15e1aa	0.14636865
78	0x3e81b6b7	0.25334713
79	0x3e8efa96	0.27925557
80	0xbecaa2fe	-0.39577478
81	0x3e308e8f	0.17241882
82	0xbdbef987	-0.09324937
83	0xbef877f7	-0.48529026
84	0x3db1b650	0.086773515
85	0xbe34f9d1	-0.17673422
86	0xbe2d5f04	-0.16930777
87	0xbe97aece	-0.29625553
88	0x3d49a9ed	0.04923432
89	0x3dff008b	0.124512754
90	0x3e23f39c	0.16010898
91	0x3d88b52d	0.066751815
92	0xbe197e8b	-0.14989679
93	0xbda664fc	-0.0812473
94	0xbe8278a3	-0.25482664
95	0x3e404201	0.18775178
96	0x3d80a821	0.06282068
97	0xbc850435	-0.016237358
98	0xbf1e2def	-0.6178884
99	0xbe15535f	-0.14582585
100	0xbaabccc5	-0.0013107291
101	0xbe482911	-0.19546916
102	0xbe3e91aa	-0.18610254
103	0xbe5d4bde	-0.21610972
104	0x3e2bf600	0.1679306
105	0x3e2d70c5	0.1693755
106	0xbe0101be	-0.12598321
107	0x3ace5411	0.0015741606
108	0xbe05ce45	-0.13066967
109	0xbe0489ad	-0.12943144
110	0xbe3db4b6	-0.18525967
111	0xbdbb55ba	-0.091472104
112	0xbe160348	-0.14649689
113	0x3e02967b	0.12752716
114	0x3e28c4b7	0.16481291
115	0xbee103a8	-0.43948102
116	0x3e191bcf	0.14952014
117	0x3e49e5bb	0.19716541
118	0x3d94baa0	0.072621584
119	0xbe091ccb	-0.1338989
120	0x3ddeb574	0.10874453
121	0xbef902b0	-0.48634863
122	0xbea1b17e	-0.31580728
123	0xbd285837	-0.041099753
124	0xbe6c58b4	-0.23080713
125	0xbdd74014	-0.10510269
126	0xbba73b7e	-0.0051035276
127	0x3eb6b991	0.3568845
128	0x3e4d1bd8	0.20030153
129	0x3c47bcec	0.012191039
130	0x3ea38752	0.3193918
131	0xbe32d347	-0.17463408
132	0xbe9fd7ec	-0.31219423
133	0xbe53ee5a	-0.20696393
134	0x3dfc04d3	0.12305608
135	0xbea8b07b	-0.32947144
136	0xbec7c16b	-0.39014754
137	0xbe001a1a	-0.12509957
138	0x3eb4d704	0.35320294
139	0xbe8b9ca7	-0.27267954
140	0xbd9091bf	-0.07059049
141	0xbd4cdc4f	-0.05001479
142	0xbe10ab38	-0.14127815
143	0xbe81db3b	-0.25362572
144	0x3da65f04	0.081235915
145	0x3e79213a	0.24329081
146	0x3d627378	0.0552859
147	0xbebf853b	-0.37406334
148	0x3e156c7c	0.14592165
149	0xbdf9b0a2	-0.12191893
150	0x3db3bb52	0.08775963
151	0x3dbddb1b	0.09270307
152	0x3e594812	0.21218899
153	0x3f3d792c	0.7401302
154	0xbdd885ac	-0.10572371
155	0xbf03030a	-0.5117651
156	0xbdc81e3c	-0.09771392
157	0xbe313a9b	-0.17307512
158	0xbe6e7031	-0.23284985
159	0xbd9cdb1a	-0.07658978
160	0x3e38cbe0	0.18046522
161	0x3e0dc288	0.13843739
162	0xbec2e0fe	-0.3806228
163	0x3e6a2fe4	0.22869831
164	0x3e7c26c5	0.24624164
165	0xbeb5e84a	-0.35528785
166	0x3f09edb5	0.5387834
167	0xbeeed216	-0.46644658
168	0x3dc2d2e4	0.095128804
169	0xbeaed77e	-0.34148782
170	0xbe399610	-0.1812365
171	0xbdec9760	-0.1155231
172	0xbddb7575	-0.107157625
173	0x3d12f8cc	0.035881802
174	0xbe8cde8e	-0.27513546
175	0xbed915e3	-0.4239951
176	0xbea30b4a	-0.3184455
177	0xbf422c9d	-0.75849324
178	0x3e417db8	0.18895614
179	0x3dd3fa54	0.10350481
180	0xbe8f956d	-0.2804369
181	0xbedc65fa	-0.43046552
182	0x3d47b797	0.04875907
183	0x3e74020a	0.23828903
184	0xbea0367f	-0.31291577
185	0xbe969b47	-0.29415342
186	0xbea00606	-0.31254596
187	0xbde8ef4a	-0.11373766
188	0xbe8ed4d5	-0.27896753
189	0x3b0721b2	0.002061945
190	0xbd33ebae	-0.043925934
191	0x3e6ff166	0.2343193
192	0xbe908b9d	-0.28231516
193	0x3dbd0de7	0.09231167
194	0x3ea42aea	0.3206399
195	0xbea129c2	-0.3147717
196	0x3ea2a7b4	0.31768572
197	0x3e82a675	0.25517622
198	0xbd7a7735	-0.06114884
199	0xbd71e3d3	-0.05905516
200	0x3d89cc28	0.06728393
201	0xbe96757e	-0.29386514
202	0xbe98e3ab	-0.29861197
203	0x3efe8847	0.49713346
204	0xbe8c5019	-0.2740486
205	0x3dcfa050	0.10137999
206	0xbed93626	-0.42424124
207	0xbe439ee9	-0.19103588
208	0x3e023986	0.12717256
209	0xbe4a4982	-0.19754604
210	0x3cbe09bd	0.023198003
211	0xbe2e8c1e	-0.17045638
212	0xbe352f0e	-0.17693731
213	0xbf016df2	-0.5055839
214	0xbdb8315f	-0.08993792
215	0xbdf56cf6	-0.11983673
216	0x3d443338	0.04790041
217	0x3e8898d6	0.26679105
218	0x3da857ff	0.08219909
219	0x3e4827cb	0.1954643
220	0xbe95882c	-0.29205453
221	0xbf3713a1	-0.71514326
222	0x3dc450b7	0.09585708
223	0x3f326ca4	0.6969702
224	0xbe16627e	-0.1468601
225	0xbc95281e	-0.018207606
226	0x3de8bb1a	0.11363812
227	0x3d9a97e2	0.075485006
228	0x3eb4f0fb	0.35340104
229	0x3e00fd04	0.12596518
230	0x3de9f881	0.114243515
231	0xbee67314	-0.45009673
232	0x3da1ca57	0.078999214
233	0x3e85d1b5	0.26136556
234	0x3e1308b9	0.14358796
235	0x3f0821f2	0.53176796
236	0xbd0f2a79	-0.034952614
237	0x3e9c3fbf	0.30517384
238	0xbdf0b378	-0.11752981
239	0x3e8b9601	0.2726288
240	0xbf193b93	-0.5985653
241	0x3ece77b9	0.40325716
242	0xbe70fbe2	-0.23533586
243	0x3ed53602	0.41642767
244	0xbe92bce3	-0.28659734
245	0x3db3c51e	0.087778315
246	0x3dc73c5f	0.09728312
247	0x3ec660ba	0.38745672
248	0x3ebeb9b6	0.3725106
249	0x3df515c4	0.11967042
250	0x3d08c0ba	0.033386923
251	0xbd1e6935	-0.038674552
252	0x3de948ca	0.113908365
253	0x3e93ac00	0.28842163
254	0x3d353eff	0.04424953
255	0xbc7d18c5	-0.0154478
