app/src/main/assets/keras_model_cnn.tflite (tflite, 376736 bytes, 10 tensors)

dense_1/bias f4 [10]
00000000: 9e7c f2b9 d3d6 413d 1019 a0bd da2c 8cba
00000010: 5811 d33c f728 2b3c a5ba 51bd 34b3 833c
00000020: b721 573d 0037 16bd
-0.00046250684 0.047324013 -0.0781728 -0.0010694519 0.025765106 0.0104467785 -0.05120339 0.016076662
0.052522387 -0.036673546

dense/bias f4 [64]
00000000: cfe1 17bd 7e4a dcbc e7d0 71bd cc8e 763d
00000010: 7b27 63bd c903 573d 5dc9 283c 285c 103c
00000020: b92f 0a3c 14f6 89bd 4268 17bd 2fe7 933d
00000030: 0fd3 9a3d 87c9 953c 4dc6 fbbb 12d2 23bd
00000040: 4b70 3ebc fe2c cc3c 0ae7 4dbb 5f1d d4bc
00000050: 4c60 e7bc 277d 373d 1ab0 623c 4fca e3bc
00000060: 1ed3 073d aed2 30bc 59bc c9bc a9e4 c33c
00000070: dae9 e8bb 9e98 db3c c766 403c 8345 cbbc
00000080: 9498 023d fdb5 30bd fe89 6ebc 07e4 523d
00000090: b4be 8d3d ca4e 5fbb 57ac d0bc 7035 523d
000000a0: 5c49 15bd 2266 093d f21b b63d a9f3 d2bc
000000b0: 553e 23bd 2ada 99bc 50f9 45bd f358 09bd
000000c0: a553 85bd d3f2 83bb e92c 593d 5a35 53bd
000000d0: 2c27 443c 64e4 4cbc c1bc 223d df34 9c3c
000000e0: b13a a9bc 63d9 1bbc a362 543d 489f 963d
000000f0: 8163 ed3c f7e1 733c 26c1 3dbc 1e92 10bc
-0.037080582 -0.02689099 -0.059037115 0.060194775 -0.055457573 0.052493844 0.010301915 0.008811034
0.0084342295 -0.06736389 -0.036964662 0.07221829 0.075597875 0.018284572 -0.0076835514 -0.03999526
-0.011623452 0.024923798 -0.0031418228 -0.025892911 -0.02824416 0.04479709 0.013835931 -0.02780643
0.03316032 -0.010792417 -0.024625944 0.023912745 -0.0071079554 0.026806172 0.011743254 -0.02481342
0.03188379 -0.043142308 -0.014559267 0.051486995 0.06921139 -0.0034074062 -0.025472803 0.051320493
-0.036446914 0.033544667 0.08892049 -0.025750952 -0.039854366 -0.018780787 -0.048333466 -0.033532094
-0.065100946 -0.0040267496 0.053021345 -0.051564552 0.01197223 -0.012505624 0.03973079 0.01906818
-0.020657869 -0.009512278 0.05185188 0.07354599 0.028978111 0.014885417 -0.011581695 -0.0088239

conv2d_2/bias f4 [64]
00000000: 0afa 7c3a 4f9b 4a3c 9447 85bc 11fb dabc
00000010: b7f8 97bc a707 e4ba cb1a 7e3d 0d74 03bd
00000020: 4fd6 d33c 64d8 953c 2807 bebb fe23 36bd
00000030: 4399 013c 9fdc 2e3c a18b f63c e0cf 0cbd
00000040: c931 33bc a4dc 213d 7dd4 babb 2065 ebba
00000050: 5f14 8dbc 5aca 0e3d b208 883d 8eea 82ba
00000060: 217a 393d 39d3 17bd 9e7d aabc 0d75 393c
00000070: fc97 e0bc feb0 50bc fa11 e7bc 876a d03c
00000080: 2bc2 7dbb 0946 083d 06bb 123d 1f6b 363b
00000090: 835b 20bd ba49 b6bc ed7d 833c e68e 1abd
000000a0: 953c d1bc bdad ebbc bd50 02bc 8295 a4bc
000000b0: 6051 293c 12be 6b3a a53c f8bb 6fd5 353d
000000c0: 0a89 9bbb d4fc 5bbb 437c 64bd c721 c0bc
000000d0: daaa 66bd 756a 66bb d683 363d 63cf 4ebd
000000e0: 97ae 56bb ca69 26bd 08f8 86bc bbc3 62bd
000000f0: 23dd 16bd 376e 58bd a5de 723b 13d4 21bd
0.0009650296 0.01236613 -0.016269483 -0.026731046 -0.018551214 -0.00173973 0.06203727 -0.032093097
0.025859026 0.01829166 -0.005799193 -0.04446792 0.007910076 0.010672717 0.030095877 -0.034377933
-0.010937163 0.03951706 -0.0057016 -0.0017959215 -0.017221628 0.034860946 0.066422835 -0.0009988116
0.045282487 -0.037066672 -0.020811852 0.011319411 -0.027416222 -0.012737511 -0.028206814 0.025441421
-0.003872047 0.033269916 0.03582289 0.0027834845 -0.039149772 -0.022251952 0.016051257 -0.037733935
-0.025541583 -0.028769368 -0.00795382 -0.020090822 0.010334343 0.0008992861 -0.0075755888 0.044393
-0.004746561 -0.0033567445 -0.055782568 -0.023453606 -0.05631528 -0.0035158668 0.044559322 -0.050490748
-0.0032757872 -0.040628232 -0.016475692 -0.055362444 -0.036831986 -0.052839484 0.0037058976 -0.03950889

conv2d_1/bias f4 [64]
00000000: 7598 70bb c186 b3bd e841 0fbd 076a 12bd
00000010: 8e39 bebc 3715 6fbd e625 9fbd 7ab9 d6bc
00000020: 4e4e bebd 7e3f 25bd aae6 5ebb cfd1 97bb
00000030: 23a5 eabb 32b2 95bb a95f bfbd 173a 8fbd
00000040: 0f3f 2fbd 4716 9abc 08ad c7bc 6f56 a4bd
00000050: b080 4ebc 10ed 09be f5f4 d3bb d3d8 c53c
00000060: 161d 82bd 63ba a7bd a21c 06bc 0340 1bbc
00000070: 3976 113d b042 94bd 7a40 ea3b f040 e3bc
00000080: 6421 8fbd d05b a5bd 270b 36bd 67aa b5bd
00000090: 9aef 57bd 0c01 9dbd a1a6 e8bc 14d0 15bd
000000a0: 1527 97bd 77f7 ad3c d9b0 403d 7172 00bd
000000b0: cc58 4b3b 7622 69bb 0189 9abd a887 75bc
000000c0: 300d 713c aa99 17bd 28be e0bd 263d 473c
000000d0: 4d8d 85bd a0a7 99bc 51c5 08bd 3dcb 373d
000000e0: b2a0 babc f44f 0dbc 2257 b4bc 6ded 51bd
000000f0: 015e 74bc 88b6 793c 7b1a 54bd 8c56 923b
-0.0036711965 -0.08765937 -0.034974962 -0.035745647 -0.023220804 -0.05836984 -0.077709004 -0.026211489
-0.09292279 -0.040343754 -0.0034011998 -0.0046331654 -0.007160799 -0.0045683617 -0.093444176 -0.06993502
-0.042784747 -0.01880945 -0.0243745 -0.080242984 -0.012603924 -0.13469338 -0.00646841 0.024151241
-0.06353204 -0.08189847 -0.0081855375 -0.009475711 0.035513137 -0.07239282 0.0071487995 -0.027740926
-0.06988791 -0.080741525 -0.04444423 -0.08870392 -0.052718736 -0.07666215 -0.028399767 -0.036575392
-0.07380501 0.021236164 0.047043655 -0.03135914 0.003102827 -0.0035573519 -0.07545663 -0.014985956
0.014712617 -0.03701178 -0.109737694 0.012160575 -0.065210916 -0.018756688 -0.0333913 0.044871558
-0.022781704 -0.008625019 -0.022014204 -0.051251817 -0.01491499 0.015241273 -0.051783066 0.0044658836

conv2d/bias f4 [32]
00000000: 63b7 26bd 674a 20bc d654 a6bd d3b4 c3bc
00000010: 7f82 79bc 90f7 73bc c48f b5bd 7124 f8bb
00000020: 2dd2 f23d 6651 39bd f48a babd 4283 0cbe
00000030: 824b 0dbe 0c01 13bc d82f c2bc 5bea b3bd
00000040: 2d3e 11bd 6711 fdbd 936c 863c d7a4 1bbd
00000050: 7be6 68bc b98b 603d 4a41 9abc 64ce d4bc
00000060: f957 0fbd 67ea 28bd d0d8 303d 16d0 f5bd
00000070: 4a38 843d ccfc 493d f37b c9bd f7e9 02be
-0.040702235 -0.009783364 -0.0812165 -0.023889935 -0.015228867 -0.0148905665 -0.08865312 -0.0075727035
0.11856494 -0.045243643 -0.091085345 -0.13721946 -0.13798335 -0.008972418 -0.023704454 -0.08784934
-0.035459686 -0.12356835 0.016409194 -0.037999 -0.014215107 0.05482075 -0.01882996 -0.025977321
-0.034996007 -0.04123917 0.04317552 -0.1200258 0.06456049 0.04931335 -0.098380946 -0.12784563

sequential/dense/MatMul f4 [64, 576]
00000000: ab88 6bbe eb38 52bd f78b feba 8d8f 8fbd
00000010: b1cd f7bd 71a4 7cbd 1421 5e3a b8e5 3cbd
00000020: ba24 2dbe e1f0 60be 5da4 1dbe e038 173e
00000030: 4bf7 e63c fc00 ee3d c7c9 9e3b 6813 733d
00000040: 8e77 013d 0c22 3cbd 8ebe 78bd 0484 ed3b
00000050: 79db 303d a17e c13d 4b9a 00be 8f99 cb3d
00000060: ad5e 50b9 fcb8 99bc a41a 6aba 69b6 e6bd
00000070: faa1 883d 9f30 003e 717e c93d da36 023e
00000080: 60c8 c0bd 1d65 623c c2ef 973d c43b 9cbd
00000090: a194 b5bd 45ef 9cbd 19d6 a8bd 1379 a0bd
000000a0: 328c 5dbd b36e b83d 536a c53d 93f8 05bb
000000b0: 9128 f4bd 3318 b2be c434 fc39 2f6d 473c
000000c0: cb1b 9a3d 44e6 afbd d778 8fbd bd59 7f3c
000000d0: a454 223c 53e6 51bb 39ad 243c a2e8 69bd
000000e0: ff6a 82be 5bbd caba 98dc d03d 11a9 24bd
000000f0: 4bb1 a73d 978d 7e3d f0e9 cb3b f408 ecba
00000100: 75e0 a9bc 5e31 b33c 4c33 093e e157 903d
00000110: 18a0 64be 944a 4abd 29e8 5c3d 4c71 23bd
00000120: 87ac 75bc d1f5 1ebe f6b2 4e3d 8a2d 0b3d
00000130: 06da 2fbc d2e8 0fbc 3653 a93d cae7 5f3d
00000140: 8cd6 adbd e759 483d e2a8 c8bb 5201 92bd
00000150: 1114 04bd 243a 313b a220 76bd 8f35 1fbe
00000160: 68fa 80bd 3fe8 083d 9858 86bd b73c f83b
00000170: 7d92 013d 4765 88bd 9d0c ccbb 61e9 053e
00000180: d093 03bd e0be 2b3d f144 343d 4862 d2bd
00000190: 10c2 22be d7ab f73b 0d2e 79be 08f6 873d
000001a0: 3085 503d ae22 9fbd 09f4 e43d fde9 ac3d
000001b0: e989 b33c 625b abbd 6fc0 9d3c 508d 253d
000001c0: ffaa 7e3d 4543 043e 94c3 303d 20fc bebd
000001d0: 5dc4 b7bd 7f73 09bc 13a1 ce3d 355d 973d
000001e0: 6af8 a8bd a053 3cbe dd3e 163d 9db6 b63d
000001f0: cdac 55bc f48d ef3d 8b7c 943d e147 d33d
00000200: c60e 863d b922 a03d f642 1b3e 1751 43be
00000210: f9e5 e3bd 85a9 d0bc 886c 52be c5b2 0cbd
00000220: 5343 04be 1727 1fbe 7e14 f139 c9a2 17be
00000230: 95bc 3abc 6628 b53c 4017 f8bc c90b d03d
00000240: f867 b33c 69c3 de3c be84 14bd ffbc 45be
00000250: 1095 f4bc 81c6 12be 26fd b1bd 1148 ffbd
00000260: 9f57 e9bc 42cd 5dbe 53b7 70bd 9c97 163e
00000270: 2fd4 bfbd 91b3 2ebe 82ea c9bc a857 9b3d
00000280: f23f a13b 7050 903b e9e6 22be 1e1f d9bd
00000290: 6a2c 633d f004 31bb cf7e a23d 82ca 683d
000002a0: bf01 e13a b7d2 47be 6a97 cb3c 47ff 37bd
000002b0: 8000 9b3d bd44 49bc ff4b 24be b8f3 cb3d
000002c0: 9d55 80be 5d57 a1bc 7bc7 8f3b 22d8 483d
000002d0: 4c7c 3bbd 06b7 db3d 7986 c53d 3482 553d
000002e0: 2d19 59bc 8a98 013e ccc0 2e3d 9e06 54bd
000002f0: 1276 ccbd 764f e33d cfe7 883b 2487 a03d
00000300: 642b 62be b858 8fbd fb27 91bb 80ce 513d
00000310: d36a 18bc 2969 6bbb 3093 613c 1827 753d
00000320: 6209 edbd ee5b db3c b5ba e3bc 07a3 3cbd
00000330: 201d aabc fa2a 513d c583 1fbe 2967 ebbd
00000340: f774 933d b2f0 59bb 37cf 7cbd 9ad7 3fbd
00000350: 3f14 cdbd 140b e43c 6028 a53d f9f9 ca3b
00000360: 87f8 4bbe 9d2e 2a3d f53d 4a3d eaef 54bc
00000370: e335 92bd 6ea9 e53d ce05 e43d ba26 263d
00000380: a10d febd 43f9 8a3d 6f2c 6ebd 5378 a0bd
00000390: 14ce f83d 6364 6dbc 8367 d0bd 8ad8 d6bd
000003a0: 3535 093e 4e18 003e 98b0 753e e798 953a
000003b0: d65d 9dbc e530 71bd ae9f 113e 87e1 a43d
000003c0: 3ee4 0fbc e3c5 f8bd 306c 933b 7907 80bd
000003d0: ab7e 06be 50a6 55be a444 31be 1cf1 36be
000003e0: c4d9 11be c392 6ebd 7709 84bd 1f41 98bd
000003f0: e314 303d b9ae 97bd 87b9 14bd 10bc 07be
-0.23001353 -0.051323812 -0.0019420375 -0.07009802 -0.120997794 -0.06168026 0.0008473557 -0.046117514
-0.16908541 -0.21966888 -0.15394731 0.1476779 0.02819409 0.116212815 0.004845831 0.05934468
0.031608157 -0.045930907 -0.060728602 0.0072484035 0.043178055 0.09447981 -0.12558858 0.09941398
-0.00019871695 -0.018764965 -0.00089303614 -0.11265261 0.066715196 0.12518547 0.0983857 0.12716237
-0.094132185 0.013818053 0.07418777 -0.07628587 -0.08866239 -0.076628245 -0.08243961 -0.07835593
-0.05408878 0.09005489 0.0963942 -0.0020442351 -0.119218 -0.34784088 0.000481045 0.0121720275
0.07524832 -0.085888416 -0.0700547 0.01558536 0.009907875 -0.0032028153 0.010051065 -0.05710662
-0.25472257 -0.0015467809 0.10198325 -0.040200297 0.08188113 0.06214675 0.006222956 -0.0018008039
-0.020736912 0.021874126 0.13398474 0.070480116 -0.22326696 -0.04938753 0.053932343 -0.03990297
-0.014994747 -0.15523459 0.05046364 0.033978976 -0.010733133 -0.008783536 0.08267824 0.05466441
-0.08488187 0.048913863 -0.006123648 -0.07129158 -0.0322457 0.002704271 -0.060089715 -0.15547775
-0.06297761 0.033424612 -0.06559867 0.007575597 0.031633843 -0.06659942 -0.0062270896 0.13077308
-0.032123387 0.04193008 0.04401106 -0.10272652 -0.15894341 0.0075583267 -0.24333973 0.066387236
0.050908267 -0.077702865 0.111793585 0.08443067 0.021916347 -0.08367039 0.019256799 0.04041797
0.062174793 0.12916286 0.043155268 -0.09325433 -0.08973 -0.008389353 0.10089316 0.07390825
-0.08250506 -0.18391275 0.036681045 0.089215495 -0.013041687 0.11696997 0.07250317 0.10316444
0.065457866 0.07819123 0.15162262 -0.19073902 -0.11127848 -0.025471458 -0.20549214 -0.034350175
-0.12916307 -0.15542255 0.0004598237 -0.14808191 -0.0113975005 0.02211399 -0.030284524 0.10158498
0.021900162 0.027192788 -0.036259405 -0.19310378 -0.029856235 -0.14333536 -0.08690862 -0.124649175
-0.028484164 -0.21660331 -0.05876858 0.14706272 -0.09366643 -0.17060687 -0.024647955 0.075850785
0.004920953 0.00440412 -0.15908398 -0.10601638 0.05546228 -0.0027011 0.07934343 0.05683375
0.0017166658 -0.19513975 0.024852473 -0.044921186 0.07568455 -0.012284455 -0.16044615 0.09958595
-0.25065318 -0.019694978 0.0043877936 0.049034245 -0.045772836 0.10728268 0.09644789 0.052126125
-0.013250631 0.12655845 0.042664334 -0.051764123 -0.099834576 0.1109914 0.0041780244 0.07838276
-0.22086865 -0.06999344 -0.004429815 0.051222324 -0.009302813 -0.0035920835 0.013768002 0.059851736
-0.11574055 0.026777234 -0.02779899 -0.046053912 -0.020765841 0.051066376 -0.1557761 -0.114942856
0.07200044 -0.0033255038 -0.061721053 -0.046836473 -0.10013627 0.027837314 0.080643415 0.00619435
-0.19919024 0.04154836 0.049375493 -0.012996653 -0.07139184 0.11213957 0.1113392 0.040564276
-0.12404943 0.06785824 -0.058147844 -0.0783545 0.12148681 -0.014489266 -0.10175993 -0.1049052
0.13399203 0.12509272 0.23993146 0.0011413366 -0.019209784 -0.05888452 0.14221069 0.080508284
-0.0087824445 -0.12147119 0.004498981 -0.06251425 -0.13134257 -0.20864224 -0.1731134 -0.17865413
-0.14243227 -0.05824543 -0.06447118 -0.07434296 0.04298867 -0.074063726 -0.036309745 -0.13255334

sequential/dense_1/MatMul f4 [10, 64]
00000000: 6167 b6bd ba62 c2bd cd97 e23d 8af3 9ebe
00000010: 8c39 77be 9c7f debe 0ea1 59be 6c48 febb
00000020: 02b0 ad3e e884 df3d 165e 123e e1de 76be
00000030: faa8 a0be 9dcf b0bc 3088 823e 60c5 3f3e
00000040: 917e 83be 0cd4 9a3e e8f9 83bd 2faa 6a3d
00000050: 8139 593e abd1 6f3e e754 33be c3a8 043e
00000060: b8ff b3be f0f1 a83e 33ec 223e 15b8 d3bd
00000070: 3456 8d3e 9cda 26bb e29e 93bd a383 77be
00000080: be31 883e 26e9 683e b830 1bbe db94 6c3e
00000090: 24e8 48be 3a6a 87bd 0654 dfbc 7215 80bc
000000a0: 8674 1fbd 04b0 963e ce19 193e 28c3 dd3c
000000b0: 5632 8d3e cc3d 123e 69d0 773e a404 e13d
000000c0: 3b9d b93d 3c9b 43be 9467 c7be 781d 1abd
000000d0: 4f12 35bd 4b87 d83d a32b 8abe f6b0 823e
000000e0: e53a 5ebe fe9b 793e 6095 76be d64d 11be
000000f0: b557 bbbe 1944 50be 16e9 bebd 04fe 8cbe
00000100: 21d5 b63d 01c9 30be be71 8ebe 873f 4dbe
00000110: 30fb 55be 51fd f73d 50dc f0bd f866 2f3e
00000120: 0c24 813e 4f61 023e d55a 2e3e 468b 833e
00000130: 97c2 d93b ea33 443e 87e7 8abe 70d5 0ebe
00000140: 2e82 a9bc 7baa 26be 19b2 50be 23d9 2cbe
00000150: 7885 8bbd e125 bfbe 2402 28bd 2eb8 343e
00000160: 765a d8b7 26bd f6bd 28b1 c8be ecdc 5bbe
00000170: 8624 9bbe 4fc9 983e 0a3c 523e 5fea 163d
00000180: cc3b 323e 3818 8cbe c6dd 4b3e 5e3e 7b3e
00000190: 51e8 7c3e cd2a 93be 9251 283e 91aa 0cbd
000001a0: 3801 0fbe 6352 26bc 0954 bdbc 87a5 0b3e
000001b0: fd90 eebd 135f cebe 1620 49be d8df 0bbe
000001c0: eff4 4a3c 5aa6 983e e761 48be 8149 5cbd
000001d0: 78ef 643b 4804 20be 5372 193e 28b9 093e
000001e0: 44a5 36bd cdbf 81be d946 643e 37ed d83d
000001f0: 45ca 8abe ef47 873d 79ca 8dbe 9791 053e
00000200: 0176 67bd 49e9 64be fc43 79bd ea7a b6be
00000210: 88e3 473e 4867 59be 9b4a 2a3d d068 a63e
00000220: 29e3 73bd f1d2 0fbe 3885 33be 4e8e 77be
00000230: 1e16 85be 7b67 913e 6f1c 55be 7d6b 493e
00000240: e8fa 043e 8ec7 5abe 7cf4 00bd 76b1 04be
00000250: ca31 493d 18f7 683e f161 a4be ef55 533e
00000260: 88eb 2f3d 00e0 9d3e 97be b33d bb76 893d
00000270: f9b7 fabb 7f5c e13d 0dde 82bc df72 533e
00000280: 61c0 b6be f8d1 ddbc 0ffb 7abe 39b1 c4be
00000290: 9fe2 5dbe 3c3c 0dbe ebbd cebd 7cb1 e63c
000002a0: d1ea 543e 75f6 ae3d 9a6c b6bd 06fe 913e
000002b0: c15b dcbc 597a 913e d752 3a3e e4e2 4ebd
000002c0: 1698 143e 47a8 883e 262a e7be ea49 773e
000002d0: f3cd b4bd 19cc d33d cccc 733e 0f6c cabe
000002e0: e521 fd3d c542 e53d 6d53 ca3d d1f6 2a3e
000002f0: e142 3ebe c739 9d3e fb6e 3b3e d164 b73b
00000300: 6a14 2e3e 4eef 2bbe 4181 1ebc 0e68 073e
00000310: 75dc 8cbe fa9d aabc 434e 613d e496 1d3e
00000320: 3895 35be 63d2 24be 6d71 3a3d 4c6c a9be
00000330: 3db3 70be a4ba aa3c 03d6 8bbe 51ed 0dba
00000340: f409 ce3d 2ff5 aebe a0e5 ae3e 4d9d 8f3e
00000350: 9910 663e 1f91 5b3e 966e adbe 145d c53d
00000360: 5c3d 78be 6485 45be 5c60 b03d 6dea 8c3e
00000370: f755 b03d 7862 e6bd 9da7 753d 0018 fabd
00000380: 60f6 8ebe 9267 ffbd 158b c43a 950e 7c3e
00000390: 2a36 643e cb7a e23d 5466 20be 54ea f43b
000003a0: e452 bf3d 6cc2 1f3e 5876 d63d 27ee ca3d
000003b0: b582 1f3c 43ca 7cbe 984a 9fbd 8fb9 35be
000003c0: 5522 03be 0d7a 5cbe 555d 2d3e 5e26 babd
000003d0: 53b3 a43e 7657 49be dfd7 1f3e 829e fbbe
000003e0: 41c2 dd3d 215a 103e 86f8 efbd c64f 01be
000003f0: 1283 debc e634 bcbe 6594 2bbd 9c45 a53d
-0.08906437 -0.09491487 0.1106411 -0.3104518 -0.24143046 -0.43456733 -0.21252844 -0.007760098
0.33923346 0.10914022 0.14293703 -0.24108459 -0.3137892 -0.021583373 0.25494528 0.18727636
-0.256825 0.30239904 -0.0644415 0.057291206 0.21213342 0.23419826 -0.17512856 0.12955002
-0.35156035 0.32997084 0.15910415 -0.10337845 0.2760483 -0.0025459891 -0.07208039 -0.24171309
0.2660045 0.22745189 -0.15155303 0.23103659 -0.19619805 -0.06612058 -0.027261745 -0.015635226
-0.038929485 0.29431164 0.1495125 0.027070597 0.27577466 0.14281386 0.24200596 0.10987213
0.090631925 -0.19102186 -0.3894621 -0.03762576 -0.044206914 0.1057268 -0.26986417 0.25525635
-0.21702154 0.24375913 -0.2408042 -0.14189848 -0.36590353 -0.20338477 -0.09321801 -0.2753755
0.0892737 -0.17264177 -0.27821153 -0.20043765 -0.20896602 0.12108863 -0.11760771 0.17129123
0.25222814 0.12732433 0.17026837 0.25692195 0.0066455114 0.19160429 -0.27129766 -0.13948607
-0.020691957 -0.1627597 -0.20380439 -0.16879706 -0.068125665 -0.37333587 -0.041017666 0.17648384
-2.579133e-05 -0.12047796 -0.3919766 -0.21470994 -0.30301303 0.29841086 0.20530716 0.036844607
0.17405623 -0.27362227 0.19908819 0.2453551 0.24697997 -0.28743592 0.16437367 -0.034342352
-0.13965309 -0.010151478 -0.02311136 0.13637362 -0.11648748 -0.4030691 -0.19641146 -0.13659608
0.012387498 0.29814416 -0.19568597 -0.053781036 0.0034932774 -0.15626633 0.14985017 0.13449538
-0.044591203 -0.25341645 0.22292651 0.1059212 -0.27107444 0.06605517 -0.27693537 0.1304382
-0.05650902 -0.22354616 -0.06085585 -0.3564065 0.1952039 -0.21230805 0.041575056 0.3250184
-0.05954281 -0.14045312 -0.17531288 -0.24175379 -0.25993437 0.28399262 -0.20811628 0.1966991
0.12986338 -0.21365187 -0.03148316 -0.12958321 0.04911975 0.22750509 -0.32105973 0.2063825
0.04294923 0.3083496 0.087765865 0.06712099 -0.007651326 0.1100397 -0.015975023 0.20649289
-0.35693648 -0.02707766 -0.24509834 -0.3841646 -0.2166848 -0.13792509 -0.10094818 0.028160803
0.207927 0.08543102 -0.08907433 0.28514117 -0.02689922 0.28413656 0.18195663 -0.05050935
0.14511141 0.26690885 -0.45149344 0.2414929 -0.08828344 0.10341663 0.23808593 -0.39535567
0.123599805 0.11194376 0.098791935 0.16695715 -0.185802 0.30708143 0.18304054 0.005596735
0.16999975 -0.16790506 -0.009674371 0.13223287 -0.27511945 -0.020827282 0.055006277 0.15389591
-0.17732704 -0.16095881 0.045518328 -0.33090436 -0.23505874 0.02084095 -0.27311715 -0.0005414086
0.10060492 -0.34171435 0.34159565 0.28049698 0.22467269 0.21442078 -0.33873433 0.09636894
-0.24242157 -0.19289166 0.08612129 0.27522603 0.086101465 -0.1124925 0.0599743 -0.12211609
-0.27922344 -0.12470926 0.0014995063 0.24614938 0.22286287 0.11058577 -0.15664035 0.007474223
0.09341982 0.1560151 0.10471791 0.09908705 0.009735753 -0.24686532 -0.077778995 -0.17746566
-0.12806065 -0.21530934 0.16930135 -0.09089349 0.32168064 -0.1966227 0.15609692 -0.4914437
0.108280666 0.14096881 -0.11717324 -0.12628087 -0.027162109 -0.36759108 -0.041889567 0.080699176

sequential/conv2d/Conv2D f4 [32, 3, 3, 1]
00000000: 39cc 01bd 3242 f03d 5bb0 503b d8d8 fe3d
00000010: d67a cc3d 53b1 34be 85dc d83d b3f6 afbd
00000020: 723a eebd d95d a3be 52ca 94bd 7f47 693c
00000030: 796c dc3d 570e 9e3e b76f 42bd 5b02 89bd
00000040: 5b3e 253d aee5 69be 8d1e ffbd 4fa6 153e
00000050: 0fd8 993d a2a3 b93d f1dc 033e d6b5 75be
00000060: 1e87 a73c aec1 7ebd 7bb0 9bbc ffd1 2abc
00000070: ab3e f83c 7a71 97be 7638 673e 1f52 bcbc
00000080: cff4 99be 0f0f 533e bfc6 4a3e 79a7 083c
00000090: bfb3 debd 9474 11be b197 9b3c 8b15 073e
000000a0: 8973 f1bd aa31 b53b f1a2 1d3e 391d 063d
000000b0: 25ba 5bbe ab59 403e 85f1 6f3d 0efd 423e
000000c0: b475 a9bd a9dd 183e 1d92 803e f24b a4be
000000d0: 8eae dbbe d6c1 ccbd 74d0 debc 5c02 673e
000000e0: 18a0 3abe bb02 2abe eb9b 0a3e 1125 c4bd
000000f0: cdad 48bd 5878 003c 42d1 f83d 9a6c a63c
00000100: 6c87 97be d801 91be ccdb 1fbe 6281 cbbd
00000110: 0cdd f43d 7569 2e3e 3c90 863e 1556 0f3e
00000120: 50b7 6d3e b152 d73d 70dc 6fbe 6fa8 263e
00000130: 339a 9bbe 3758 87be f5f8 6dbe 8855 e0be
00000140: 7293 353e 4f2b 26bd afe9 ef3d f947 d3bd
00000150: edd1 8ebe e3a1 a23d 9e09 bb3d 8fac 81bd
00000160: 5ded 073e 3dd1 9d3d 9210 bcbd bb70 993d
00000170: ea3a 9d3d c6d6 bebd 4c9e b0bd 0a0e 103e
00000180: 2ef9 88be 84a1 01be 64f9 823d 0f47 343d
00000190: e828 263c 7281 ac3d 73b4 fa3d 426d 6ebd
000001a0: cf61 8abc 0057 d23d c9ba 00be ec41 4bbe
000001b0: c222 d33d ec2f 323b e7dc 40bc 86e0 97bd
000001c0: ec39 8c3c 9286 94bc 5ea7 52be 1fa7 cf3d
000001d0: c695 ad3a dc98 583e 3d38 503d 07e7 4abe
000001e0: 0d5c 623c f0c9 1e3e 43f2 88be 52e9 763e
000001f0: a616 95bd 1cc4 6dbe fe86 93be d1f4 a43d
00000200: 3e30 783e a9b5 afbe 88fb 33be a1fc 6f3e
00000210: 3f31 85bd dacf 2ebe 4c30 b03d bea8 a63d
00000220: 1332 20be 9c6b a9be 00fb 683e 487a eebd
00000230: a3ae 8abd f302 2a3e b973 f43d daaf bf3d
00000240: 9f65 273c 4a6a f43d 7154 8fbe d307 c1bd
00000250: 8f65 6dbe 7a2a 62bd d101 0f3e 1190 e03c
00000260: 4059 5d3e 6618 eebd 1b87 f03d a7fb 45bd
00000270: 8ed9 403e 1725 1c3e 1605 403d 0fa0 dcbd
00000280: 634b 94bd d75c 853d ca5d 4e3e 1f57 723e
00000290: db62 373e 21ab 6e3d ceee e6bc a921 87bd
000002a0: 68b3 9cbe d439 c5be d1fc 42be 3901 0abe
000002b0: e0f4 93be 4fdd 0dbe 960c 173e a970 cabc
000002c0: a334 bbbd 24f2 4ebb 31a4 4c3e bf2b 333e
000002d0: 4378 8abe 570f b8bd d748 4b3e 89dc bcbe
000002e0: 1ca1 b23d f9c5 763e 9119 22bd cf02 c9bb
000002f0: 6250 403e c03b 473e d1de f0bc 17c3 9bbe
00000300: b389 4c3e 2bc8 9fbd 7603 a2be 081f bf3c
00000310: 25c6 20be 892e 82be afa3 0fbe 19a4 cc3d
00000320: b791 793d 7391 35be 407e 603d 84dc bf3c
00000330: c96c 26be fde0 9fbd 12a3 23be aff9 22be
00000340: a608 97bd f900 9abc 1756 90be 269a 6c3d
00000350: 29da 2f3e e61b b83c c449 153e 1229 c03d
00000360: ef41 8cbe c02f 27be 984d 84be bfa9 013e
00000370: fcaa 88bd 1db3 723c 2d76 25bc bcf1 a93c
00000380: 8afe 3d3e 4e74 6b3d 12da 223e 848d d1be
00000390: b607 123e c626 1c3d 7e53 b1bd fdad edbd
000003a0: 558e f73d c266 ddbc 404b a3be 763c 5ebe
000003b0: 3489 30be 82da f83c b231 0c3c ea86 36be
000003c0: fe57 773e d92b 883d 39d8 933c 335c 783c
000003d0: 09c5 053e 0de6 79bd 0bf9 dabd b89a 073e
000003e0: 194e 3cbd 4260 a33d b8a2 213d 640c ce3d
000003f0: 455d 913c a3f2 603e bfb5 9e3e 9066 4cbe
-0.031688903 0.11731376 0.0031843397 0.124437034 0.099843666 -0.17645769 0.10588936 -0.08591976
-0.11632241 -0.31907538 -0.07265152 0.014238237 0.10762877 0.30870315 -0.04746982 -0.066899024
0.04034267 -0.22841522 -0.12456999 0.14614223 0.07511913 0.090644136 0.12877251 -0.23995146
0.020450171 -0.062196426 -0.01900505 -0.0104260435 0.03030332 -0.29578763 0.22580132 -0.022988377
-0.30069587 0.20611213 0.19802378 0.00834071 -0.108741276 -0.14204627 0.01899323 0.13191812
-0.11789615 0.005529602 0.15394188 0.032742713 -0.21457727 0.18784206 0.05857994 0.19041845
-0.08274403 0.14928307 0.25111476 -0.32089192 -0.42906612 -0.09997909 -0.027199008 0.22559494
-0.18225133 -0.16602604 0.1353604 -0.09577382 -0.048993874 0.007841192 0.12149288 0.020315457
-0.29595506 -0.2832172 -0.1561119 -0.09936787 0.11956224 0.17032416 0.26281917 0.13997681
0.2321446 0.10513819 -0.23423934 0.1627519 -0.30391082 -0.2643449 -0.23239501 -0.43815255
0.17732027 -0.040568646 0.117144935 -0.10316462 -0.27894536 0.07941034 0.09132694 -0.06331741
0.1327414 0.07705925 -0.09182848 0.07492205 0.076772526 -0.093183085 -0.08623943 0.14067855
-0.2675261 -0.1265927 0.06395224 0.04401308 0.010141589 0.08423127 0.12241449 -0.058209665
-0.016892342 0.102705 -0.12571253 -0.19849366 0.10309364 0.0027189208 -0.011771417 -0.07415871
0.017117463 -0.018130574 -0.20571658 0.10139298 0.0013243489 0.21152061 0.050834883 -0.19814692
0.013815892 0.1550672 -0.2674733 0.24112442 -0.072797105 -0.23219341 -0.28813928 0.080545075
0.24237153 -0.34318283 -0.1757642 0.23436214 -0.065035336 -0.17071477 0.08602962 0.08137654
-0.15644102 -0.33089912 0.22751999 -0.11644417 -0.067715906 0.16602688 0.11936135 0.09359713
0.010217099 0.119343355 -0.2799411 -0.094253205 -0.23183273 -0.05521629 0.13965537 0.027412446
0.21616077 -0.116257474 0.11744519 -0.048335698 0.1883299 0.15248524 0.04687985 -0.10772716
-0.072409414 0.065118484 0.20152965 0.23666047 0.17908804 0.05826867 -0.028190043 -0.06598217
-0.30605626 -0.38520682 -0.19041754 -0.13477029 -0.28897762 -0.13853954 0.14750895 -0.024711924
-0.09140899 -0.0031577433 0.19984509 0.17497157 -0.27044877 -0.08987301 0.19852005 -0.36887005
0.087221354 0.24098958 -0.039575163 -0.006134368 0.18780664 0.19456387 -0.029403122 -0.3042228
0.19974403 -0.07801851 -0.31643265 0.023330227 -0.15700586 -0.25426129 -0.14027284 0.09992237
0.06092998 -0.17731266 0.0548079 0.02342058 -0.16252436 -0.07806585 -0.15980175 -0.15915559
-0.073746964 -0.018799292 -0.2819068 0.057764195 0.17173065 0.02247424 0.1457892 0.093828335
-0.27394053 -0.16326809 -0.2584045 0.12662409 -0.06673238 0.014813212 -0.010098976 0.02074515
0.1855413 0.057483964 0.159035 -0.4092828 0.14260754 0.038122915 -0.08658503 -0.11605451
0.120876946 -0.027026538 -0.3189335 -0.21702752 -0.17239839 0.03037763 0.00855677 -0.17824903
0.2415466 0.06648988 0.018047439 0.015158701 0.13063444 -0.06101041 -0.106920324 0.13242614
-0.045972917 0.07977344 0.03946182 0.10060957 0.01774467 0.21967559 0.30998036 -0.19961

sequential/conv2d_1/Conv2D f4 [64, 3, 3, 32]
00000000: fe66 1abe 01c8 27bd d511 aabc 6539 a3bd
00000010: 3dcb aa3c dc69 823d b3bb edbd 23ec c6bc
00000020: 5bfc a53d 4571 583d 8cd2 ba3d 1492 a1bc
00000030: 3393 1dbd 4238 54be 7ee2 543d 9b20 01be
00000040: d541 03be 63a6 fc3d 65b1 753d e657 60bd
00000050: 6fbd 193e 4830 aa3c b90c f1bd 1565 6f3d
00000060: 0ccc d4bd 7fbc 59bd 3c52 243d e11e 84bd
00000070: 4499 75bd 8b66 c7bd b2fe a13c 731f bfbc
00000080: 5c9e 02be 4b3e e7bd ec8f e6bc e59f 1d3e
00000090: 9f40 d93d 4e2e 8cbd 4148 62bd ed85 aebd
000000a0: 61f3 4fbd 522a 513c 6499 e5bd 1513 98bd
000000b0: 09ac 3a3d e7b9 15bd 1fad c0bc 86d3 843d
000000c0: 7ee5 9f3d 4323 e0bb aa5e cdbe 2898 5d3d
000000d0: ff38 89bd c9ae 633d c1b0 0dbd 6f67 8ebc
000000e0: 3fdb 923d cef4 74bc ce22 4a3d 1a90 0ebd
000000f0: b9d5 85be 7651 603e eb5e 243c 139a bbbd
00000100: c171 02be daa3 b8bc b876 a3bd b0cc 693d
00000110: d8cd d7ba 42d5 15be 33ed 913c 7609 513d
00000120: 3ca3 02be 286c b2bd 1cd2 d2bc 5aa1 fe3b
00000130: 0d80 1ebe 951b 773d d3d9 56be 953e 363d
00000140: adb4 173e dd51 71bd 51ac 6dbd 8976 6a3d
00000150: 8561 86bd 5db1 c1bc d4cc dbbd 5478 803c
00000160: 4d60 123e e482 e3bc b038 3f3e f42f d1bc
00000170: 61f5 c9bc d6c6 223e a809 313d db2a 3ebd
00000180: 1043 5fbe 82a5 a8bd e0f0 dcbd 6741 69be
00000190: b32a 25be 117a 573e e66b 47bd dca5 97bd
000001a0: f564 05be 51ee 3cbd 71f7 2f3e a4fc 19be
000001b0: 2dca 07bd 0b33 18be 07a7 173e 898e dabd
000001c0: d593 5ebe db90 72bd 4f18 033e ba12 93bd
000001d0: 0221 983d 17f2 f0bd 13a2 92bb 4aa5 cc3c
000001e0: f354 9abd 8211 39bd adca 85bd 936b 17bc
000001f0: a008 8b3d 61b1 95bd a542 00be 382c 44be
00000200: 173f a3bd 41f4 b83d 62d4 e6bd 7906 65bc
00000210: 69d5 3e3d d195 cd3d 31b7 5e3d e14b 9bbc
00000220: 3a7b a6bd 8951 ba3c a6fc bf3d d1b7 cdbd
00000230: 756f c13d 3622 9ebd 7364 2f3e 3cba 9a3c
00000240: f5c3 96bd e43f c63d 7f16 9cbe 07e7 5fbd
00000250: 6833 b43d cb39 92bc 1de0 a63d 38c5 d13c
00000260: b112 813d eb81 b43d 5e8b e83d 9ed5 3cbc
00000270: f73e c0bd 427b 333e 9976 32bc bb6c 2f3c
00000280: 196a c23d a4f4 563e 98a2 ea3d d961 563d
00000290: d69b 703d 27f2 2abe 1e28 693d 58b3 723d
000002a0: 2e4c 37be 65f4 c4bd 7a51 0bbe e0e1 703d
000002b0: 9fa2 28bd 83f5 103d 3c42 79bc a3d7 243e
000002c0: 68fe bcbb 85cf fabb e885 93be 23d1 07bc
000002d0: 3c84 0abe 8934 bf3d 1022 9a3d 7002 15be
000002e0: 56b4 d83c 9a9f 033d 6330 3e3d bc3d b63d
000002f0: 79d9 96be 068b 623e b2d2 4b3a e8da 3dbd
00000300: c526 1ebe 37cb 88bd a398 25be 3379 0bbe
00000310: 09e0 c3bd 8ea9 9dbd cb55 36be 79a4 263d
00000320: 556b 943c cfbb a33c 2e9c 16bb 9235 34be
00000330: 02ce e0bd 61c8 16be cc40 153e 0e15 cfbd
00000340: 7f9f 44bc 6677 20be 8448 0ebe 211d 25bd
00000350: 534e d93d 38e9 14be 67c0 9abd 9023 a63d
00000360: 1f62 c43c 0148 77be c0e5 9d3d 879c 01be
00000370: 3651 dfbc fee3 133d 2ab9 953d 1dd8 93bd
00000380: ce28 d2bd e670 ecbd 7f6e 10bd acda 0bbc
00000390: c8ec 15be 2232 1c3d 805c 8dbc 9c7b 0abe
000003a0: 4ac0 79bd dd94 033e 2cf1 0e3e a59e 8fbd
000003b0: bcf3 973d 27b8 dbbd af2f 1b3e e71e 8abd
000003c0: 40ff 25be becb 65bc 661c 90be 6dc4 5a3d
000003d0: 6afa 0a3e a5d1 bdbc ac88 9f3d 8d24 473d
000003e0: 4c06 4bbd 3091 e63c 6066 98bd fafb ca3d
000003f0: 5c9d c6bd 510f 92bd 2b54 5dbc cdb0 423d
-0.15078351 -0.040962223 -0.020760456 -0.079699315 0.020848865 0.06367847 -0.116080664 -0.02428252
0.081047736 0.052842397 0.0912219 -0.019722976 -0.03847046 -0.20724586 0.051973812 -0.12610094
-0.12818082 0.12336423 0.05998363 -0.054771326 0.1501367 0.020774975 -0.11770005 0.05844601
-0.10390481 -0.05315828 0.040117487 -0.06451202 -0.05996062 -0.097363554 0.019774769 -0.023330426
-0.12755722 -0.11291178 -0.0281448 0.15393026 0.106080286 -0.068447694 -0.055244688 -0.08521638
-0.050769214 0.012766438 -0.112108976 -0.074255146 0.04557422 -0.036554243 -0.02352005 0.064856574
0.07807444 -0.006840141 -0.40111285 0.054100186 -0.06700324 0.05558661 -0.034592394 -0.017383305
0.07170724 -0.014950944 0.0493496 -0.034805395 -0.2613962 0.21906075 0.010032396 -0.09160247
-0.12738706 -0.022539068 -0.07981628 0.05707997 -0.0016464544 -0.14632133 0.0178133 0.051034413
-0.12757581 -0.087120354 -0.025734954 0.0077706994 -0.15478535 0.06032904 -0.20981531 0.044493277
0.14815016 -0.05891596 -0.05802566 0.05724195 -0.06561569 -0.023644144 -0.10732427 0.015682377
0.14294548 -0.027772374 0.18673968 -0.025535561 -0.024653139 0.15896162 0.0432221 -0.04642759
-0.21802926 -0.08234693 -0.10788131 -0.22778855 -0.1612957 0.21042658 -0.048686884 -0.07404682
-0.13026793 -0.046125714 0.17184235 -0.15037781 -0.033151794 -0.14863221 0.1480981 -0.10671718
-0.21736081 -0.059220176 0.12802242 -0.07181306 0.07428171 -0.11764925 -0.004474887 0.02498116
-0.07535734 -0.045182712 -0.06532798 -0.009241956 0.067887545 -0.07309223 -0.12525423 -0.19157493
-0.07971018 0.09030963 -0.112709776 -0.013978594 0.046590243 0.10038341 0.054373924 -0.01895708
-0.08128972 0.022743957 0.09374361 -0.10044826 0.09445087 -0.07721369 0.17128162 0.018887632
-0.073615946 0.09680155 -0.30485913 -0.054663684 0.087988675 -0.017849823 0.08148215 0.025606737
0.06302393 0.088138424 0.11354707 -0.01152554 -0.093870096 0.17527488 -0.010892534 0.010707076
0.09492893 0.2099176 0.114567935 0.05233941 0.058742367 -0.16693936 0.056923024 0.059253067
-0.17900154 -0.09616927 -0.136053 0.05880916 -0.041170713 0.03539039 -0.015213545 0.16097884
-0.0057676323 -0.007654133 -0.288131 -0.008289608 -0.13527006 0.09336192 0.07526028 -0.14551711
0.026453178 0.03213463 0.046432864 0.08898494 -0.29462793 0.22123346 0.00077752315 -0.046351343
-0.15444477 -0.06679385 -0.16171508 -0.13620453 -0.09564216 -0.076983556 -0.17806165 0.040684197
0.018117586 0.019987015 -0.0022981274 -0.1759856 -0.10976793 -0.14724876 0.145755 -0.10111438
-0.012000917 -0.15670547 -0.1389485 -0.040310983 0.10610642 -0.14542091 -0.07556229 0.08112252
0.023972569 -0.24148561 0.07709837 -0.12657367 -0.027260404 0.036106102 0.07310708 -0.07218955
-0.10261689 -0.11544971 -0.035261627 -0.008536022 -0.14641106 0.038133748 -0.017256021 -0.13523716
-0.060974397 0.12849756 0.13959187 -0.07012681 0.074195355 -0.10728484 0.15154909 -0.067441754
-0.16210651 -0.014025627 -0.28146666 0.053409982 0.13572088 -0.023171255 0.0778974 0.048618842
-0.049566552 0.028145403 -0.074414015 0.09911342 -0.09697983 -0.071318276 -0.013508837 0.04753189

sequential/conv2d_2/Conv2D f4 [64, 3, 3, 64]
00000000: eb78 39bc f34f 8bbd 42bd f03d 197c da3b
00000010: 9bb9 d3bd 7674 93bd 7b15 593d fbe6 a3ba
00000020: 840b 9bbd 92e1 dcbd 24ce 8e3d b23e 923d
00000030: 217c f0bd 721f c2bd 9f8d ccbd 6bc0 e63c
00000040: 505d 5dbd e723 b0bd b4de c2bb 3a8c a0bd
00000050: a535 29bd 1651 0abe 1ca9 a03c cc5d 9dbc
00000060: a921 22be 3760 cdbc c4dd ad3d d4b8 a03c
00000070: db6e 86bd 6bfc 133e 2fda 7cbd abd2 b8bc
00000080: f0a1 a6bd ab7c 033e 41de 66bd 17df ca3d
00000090: b386 f93a 2971 cc3d e0d7 aabc c156 4a3d
000000a0: 73bc abbc 5e39 8c3d a6ed d43d cba3 82bd
000000b0: 4408 503d e683 053c a1fa e73d 3ce4 d9ba
000000c0: fae7 40be 7507 863e 74bc 243d 9185 9c3c
000000d0: 3583 18be dbff 733d c566 fa3a 6f8f b6bd
000000e0: 1a80 4abd 0841 d43d a3c2 91bb d9c4 6dbd
000000f0: 64cb 773d d853 79bd 17c1 14bd 886c c5bb
00000100: 74f0 213d fa57 a8bd 8c6b 153d adb0 b63d
00000110: 27e4 093e 79f9 a9bc 745e 7b3c 4238 0a3c
00000120: d969 d43c b9b6 d6bc 9b53 aa3d c63e 543e
00000130: 2b73 a3bd 8260 6cbd 7b03 053c d665 c9bd
00000140: a9ea 9abd 91dc c23d 5647 d23d 6e20 61bd
00000150: d197 32bd db6d 1ebd 06bf 68bc d305 9cbd
00000160: 3d6a 63bd a721 27bc d803 833c 479c 39bd
00000170: 8bf1 0dbe 89b1 fe3c ca5e e1bc e4e5 dbbd
00000180: b9dd 083e 83b8 78bd 4be5 4a3d 5dcf 95bd
00000190: 7d23 74be 07cf 87bd 5964 713d cbfa 33bd
000001a0: b185 883d 0bad 313c afe6 3bbe ea5d 9dbd
000001b0: e2d6 b7bd d672 b0bd 5b5a 063d 85a8 1cbe
000001c0: cd12 5cbd 71df a3bd 91c1 41bc 2372 63bd
000001d0: bed7 2ebc f4de 7ebd 943d a93d c054 273d
000001e0: def6 cdbd 7a25 eebc 7fed d4bc c146 bb3c
000001f0: 76db 96bd 5879 f33d e7ea f43d f07d e0bd
00000200: 5eca 263b c8ee 66bd 7829 d83c 68ca a33d
00000210: f82a 80bc c4be 03bc 4984 0bbe f33a 80bd
00000220: 39be ae3d 586e 1eba 61ae 293e 2e2d d4bd
00000230: 51c3 f83d d02a c1bb 1916 c83d e67b d4bb
00000240: 4857 16bd 0f92 333e 4cf1 ccbd 08ed e93a
00000250: c6b0 8ebd d16c d53d 786f 15be 6525 a4bd
00000260: e91d 573d 1341 923c 983a ef3d ead9 04bd
00000270: a777 fbbd e0e4 68bd 5553 203d afd3 28bd
00000280: bcad 953d 516d c8b9 a8a0 a73d 4e2b 19bd
00000290: 8578 aabb 08eb e13c a981 093e 636b 28be
000002a0: 8db2 2ebd 0e93 a8bd 065d 2b3d 78eb a13d
000002b0: 4c85 b7bd c9cd 25bc fe8d abbd 2c33 e0bd
000002c0: 3154 8cbd 2851 d2bd b754 eebb 9c13 903d
000002d0: 631e 9b3d 6b5d 4ebe ed36 d9bd 4966 d93d
000002e0: 6cc1 0ebe d676 30be 469c 9dbe 02f0 f13b
000002f0: 1656 80bc 8669 343e 01f9 343d e13d 77bd
00000300: 0c1e 0ebe 937a 4dbc a4a5 fa3c 158c 76bd
00000310: 2050 bf3d aaa9 f8bd c87d 903d dce8 d2bd
00000320: 5625 10ba 99e9 5cbd 1ec9 15bd 2039 f2bd
00000330: fd7d 34bd 85ad 4f3d fca1 14be 622f 973c
00000340: 2674 df3d 6f19 3e3d bd0b 573d 93e3 4cbe
00000350: 1afd 5cbd 9dc1 47be 136f 9dbd 3adf 2cbb
00000360: 80af 80bd 1653 b2bd a91e 673c b796 a8bd
00000370: 9920 c3bc e107 20bd 34fb 483d 54fd 30be
00000380: af90 823d ab25 1ebe 6c41 dd3d 9880 1dbe
00000390: 281b 94be 9e31 29be a851 103d 4aa8 f3bc
000003a0: 56e4 34bd 282b 98bd 520f d5bc 2e3b d1bc
000003b0: d1af 1dbe 3de4 9fbd 5f9a b7bd e833 aabc
000003c0: 61b7 ffbd cd9c 9ebd 6b3a 8b3d e476 ecbd
000003d0: 9b0b b5bd 9feb ad3d acff 0bbd b19a a43d
000003e0: 6436 91bd 5533 14be bce3 15bd 708a afbd
000003f0: 3347 3fbe 1088 713d bf36 df3d 4e0e 21bd
-0.011320333 -0.068023585 0.11754848 0.0066676256 -0.10338136 -0.071999475 0.052999 -0.0012504751
-0.07570556 -0.107852116 0.06972912 0.071408644 -0.11742426 -0.09478654 -0.099879496 0.028167924
-0.054044068 -0.08600598 -0.0059469584 -0.07839246 -0.041310925 -0.13507494 0.019611888 -0.019209765
-0.15833153 -0.025070293 0.08489564 0.019619383 -0.06564113 0.14451759 -0.061731514 -0.022561392
-0.08136356 0.12840526 -0.0563643 0.09905832 0.0019037336 0.09982521 -0.02085489 0.04939914
-0.020963883 0.068468794 0.1039689 -0.06378897 0.050789133 0.008149123 0.113271005 -0.0016623805
-0.18838492 0.26177564 0.040218785 0.019106658 -0.14893802 0.059570175 0.0019104114 -0.089140765
-0.049438573 0.10363966 -0.0044482513 -0.058049057 0.060496703 -0.060870975 -0.036316957 -0.006024901
0.039535955 -0.08219905 0.036479518 0.08920417 0.1346594 -0.02074884 0.015342344 0.0084362645
0.025929378 -0.026210176 0.08316728 0.20727071 -0.07980951 -0.057709225 0.008118506 -0.09833877
-0.07564289 0.09514726 0.102675125 -0.054962568 -0.043601815 -0.038678985 -0.0142057 -0.076182984
-0.05552124 -0.010200894 0.015993044 -0.045315053 -0.13861673 0.031090515 -0.02751102 -0.107372075
0.1336583 -0.06072284 0.049535077 -0.07314942 -0.23841663 -0.06631284 0.05893359 -0.043940347
0.066661246 0.010844479 -0.18349718 -0.07683928 -0.089765325 -0.08615653 0.032801013 -0.1529866
-0.053728867 -0.080016024 -0.011825935 -0.05552877 -0.010671554 -0.062224343 0.08263698 0.04085231
-0.10056852 -0.029070605 -0.025992153 0.022860887 -0.073660776 0.11888379 0.119588666 -0.10961521
0.002545021 -0.056380063 0.026386961 0.0799759 -0.01564549 -0.008041088 -0.13624682 -0.06261244
0.08532376 -0.0006043664 0.16570427 -0.1036018 0.12146629 -0.005894996 0.0976984 -0.0064844964
-0.03670433 0.17536186 -0.10006961 0.001784713 -0.069673106 0.10421146 -0.14593303 -0.08014945
0.05251876 0.017853295 0.11681098 -0.03243438 -0.12278681 -0.056858897 0.03914197 -0.041217502
0.07308528 -0.0003822842 0.081849396 -0.037394814 -0.0052023553 0.027577892 0.13428368 -0.16447215
-0.042650748 -0.082311735 0.04183676 0.0790624 -0.08960971 -0.010119864 -0.08376692 -0.1094726
-0.06851996 -0.102693856 -0.0072732824 0.0703499 0.07574155 -0.20152824 -0.106061794 0.106152125
-0.13940972 -0.17232832 -0.3078329 0.0073833475 -0.015666049 0.17618379 0.04418278 -0.060361747
-0.1387865 -0.012541431 0.030596562 -0.060192186 0.093414545 -0.12141736 0.07055241 -0.10298321
-0.00054987276 -0.053933714 -0.036568753 -0.11827302 -0.044065464 0.05070259 -0.14514917 0.018455211
0.109108254 0.046410974 0.05250143 -0.20008688 -0.053952314 -0.19507451 -0.07687201 -0.002637817
-0.06283474 -0.08707254 0.014106431 -0.082318716 -0.023819255 -0.039070014 0.04906769 -0.17284137
0.063752525 -0.15444057 0.10803494 -0.15381086 -0.2892697 -0.16522834 0.035234123 -0.029743332
-0.04416307 -0.074301064 -0.026008282 -0.025540914 -0.153991 -0.07807205 -0.08964991 -0.020776704
-0.124861486 -0.07744751 0.06798252 -0.11546114 -0.08840104 0.08492207 -0.034179375 0.080373175
-0.07090452 -0.14472707 -0.036594138 -0.08571327 -0.18679504 0.05896765 0.10899114 -0.039320283
